checkpoint/snake_dqn.pth (torch, 143655 bytes, 6 tensors)

fc1.0.weight f4 [128, 11]
000000 da 4b 54 3f 4b 40 1d 3c 4b 92 b2 bf c9 06 65 3e
       0.8292824 0.009597848 -1.3950895 0.2236587
000010 65 ec cc 3f be 01 b4 3f fe 81 67 3f 2a e8 8c bf
       1.6009642 1.4063032 0.9043273 -1.1008351
000020 8e b3 7e bf 51 bf af 3e 90 a9 43 be dd 16 11 3f
       -0.9949273 0.3432565 -0.19107652 0.5667551
000030 40 0e 83 3d 34 0f dd bf 67 b6 1b 3f d2 99 70 bf
       0.06399202 -1.7270265 0.608252 -0.9398471
000040 d6 22 8f bf 02 40 4f 3e 69 5a 7c 3f 44 9d 65 bf
       -1.1182506 0.20239261 0.98575455 -0.89693093
000050 69 a9 f9 be 5c 03 18 3e 18 6f c3 3e e5 c9 c5 bf
       -0.48762062 0.14845031 0.38170695 -1.5452238
000060 ca 8d 09 3f 7b 29 fe 3e 4b 08 16 be 6f 77 68 bf
       0.5373198 0.49641022 -0.14651601 -0.9080724
000070 95 eb b6 bf 68 02 06 3f 5a cd 17 3f 48 9a 93 3e
       -1.4290644 0.5234742 0.59297717 0.28828645
000080 5b 14 ea be 8f 93 67 bf 4f 88 8b 3d b9 3a b1 be
       -0.45718655 -0.9045953 0.06813108 -0.34615114
000090 dc ef b8 3e 88 e9 9a 3e df a9 97 bd 3e b1 34 bf
       0.36120498 0.30256295 -0.07405447 -0.7058295
0000a0 96 32 e7 be e3 65 36 3e 26 32 0d 3f f0 b2 60 be
       -0.45155782 0.17812304 0.55154645 -0.21943259
0000b0 da 12 00 c0 c9 ff a2 bf d9 52 ee 3e f6 d0 53 3f
       -2.0011506 -1.273431 0.46547583 0.82740724
0000c0 92 f8 72 bf de d6 57 bf 55 26 10 3f 15 bf 2f bf
       -0.9491054 -0.84312236 0.5630849 -0.68650943
0000d0 9b c6 d8 be 57 2f 01 bf 13 35 2f 3f d3 03 2a 3e
       -0.42339024 -0.5046286 0.6844036 0.16603021
0000e0 a9 5a 33 bf 2e 36 b3 3e 3a 21 3b bf 39 c2 85 be
       -0.7006021 0.35002273 -0.73097575 -0.26124743
0000f0 e4 87 ab bd c2 b1 b0 be 15 84 14 bf b7 f5 6c 3c
       -0.083755285 -0.34510618 -0.5801404 0.01446288
000100 19 9f cb be fa ad 05 3e c6 eb a6 bf 74 e9 a4 3e
       -0.3976982 0.13054648 -1.3040702 0.3220936
000110 37 43 ad bf 38 94 02 3e b5 30 fb 3e 4d 3c f4 be
       -1.3536137 0.12751853 0.49060598 -0.47702256
000120 4f 76 21 bf be e7 4c be 71 4e 19 bf 00 0f 4b 3f
       -0.6307115 -0.20010278 -0.5988532 0.79319763
000130 07 cf 17 3e 6f 1a cd be 2b 68 64 be 2d 91 98 bc
       0.14825068 -0.4005923 -0.22305362 -0.018623913
000140 e9 b4 2e bf 9e 0a 07 bf 63 48 b9 be 40 f6 5e be
       -0.68244797 -0.52750576 -0.3618804 -0.21773624
000150 6d d3 17 3f fa 3a 31 bd c6 d7 b7 3d f0 44 50 3f
       0.59306985 -0.043269135 0.089767024 0.8135519
000160 f9 29 9e bf 37 4b 4f 3e 1c df fa be f3 ac b2 3f
       -1.2356559 0.20243536 -0.48998344 1.395903
000170 27 6e 26 3f 3a 0b 54 3f 2c 40 2b be 97 4e 0b bf
       0.6501183 0.8282963 -0.16723698 -0.54416794
000180 b7 a2 c2 be 9b 27 82 3e 4d 67 89 3e 26 59 e7 3e
       -0.38014767 0.25420842 0.26836625 0.45185202
000190 ea 13 4e 3f e3 35 a4 bf 76 dd a9 bf 17 a9 87 bf
       0.80499136 -1.2828945 -1.327071 -1.0598477
0001a0 26 8c 3f bf 7d 97 d2 3e cf e5 0a bf 4e 13 74 3d
       -0.74823225 0.411312 -0.5425691 0.059588723
0001b0 05 9a 88 3d 54 bd 6b bf a5 fd ed 3e 1d 7a 48 c0
       0.06670002 -0.92085767 0.46482578 -3.1324532
0001c0 74 cd a3 3e 25 ff a1 bf 40 c7 ef bf ed 37 a8 be
       0.31992686 -1.2655989 -1.8732681 -0.32855168
0001d0 4c 71 ba bf 40 83 09 bf 85 f1 b4 bf 7b da 86 bf
       -1.4565825 -0.53715897 -1.4136206 -1.0535425
0001e0 35 36 0e 3f 9c 84 8c bf 1a 28 f1 3e 7d 58 1b 3f
       0.55551463 -1.0977969 0.47100908 0.606819
0001f0 ef 30 27 3f 89 66 0e bf 3b a9 1a 3f d4 a4 fc be
       0.6530904 -0.55625206 0.60414475 -0.49344504
000200 3c 7c 46 bc dc 97 26 3f 25 7c 81 be 4e c2 a6 3e
       -0.012114581 0.6507547 -0.25290027 0.32570118
000210 b9 77 8a bf a2 88 71 bf af e4 6d bc d1 95 05 3e
       -1.0817786 -0.9434911 -0.014519854 0.13045432
000220 ac 2d 17 3f 15 56 9f 3f 2f 8c 5a 3f 3e 2f b7 be
       0.59054065 1.2448145 0.85370153 -0.3577823
000230 3c 01 81 3e c4 e2 2d 3d d1 9f 19 bf d0 70 f0 3e
       0.25196254 0.04245259 -0.60009485 0.4696107
000240 91 30 00 3f 9a 00 10 3f 06 d7 6a 3e 1f 83 e1 bf
       0.50074106 0.5625092 0.22933587 -1.761814
000250 14 35 ab bf d6 c4 b4 bf 99 0b a3 bf e3 ea ae 3e
       -1.3375573 -1.412257 -1.2737914 0.3416358
000260 04 b3 b5 bf 60 04 dc bd 5f 49 f4 bf c5 e6 4c 3f
       -1.4195256 -0.10743022 -1.9084891 0.80039626
000270 d0 b1 a1 be 9b cd 8a bf d5 68 37 bf c5 85 a5 3e
       -0.31580973 -1.0843996 -0.71644336 0.3232862
000280 67 0a 24 be 3b 84 51 bf 5b 4a 8d 3f 9b cb cc 3e
       -0.16019593 -0.8184239 1.1038316 0.3999909
000290 83 fb 9d bf 7c fa 5f 3e 34 ee 31 bf be 5e c8 bf
       -1.234238 0.21872896 -0.69504094 -1.5653913
0002a0 fd bb 4f 3f d1 a3 82 bd 7c 72 e8 3e 35 e7 3e be
       0.8114622 -0.06378902 0.45399845 -0.18642886
0002b0 e9 6b 30 3f 96 9b 1d 3f d3 b5 d9 bf c3 12 c3 bf
       0.6891466 0.6156553 -1.7008613 -1.5240101
0002c0 48 e0 cf bd 97 99 23 3f 8f 49 7a 3e da 2b a3 bf
       -0.101502 0.63906235 0.24442123 -1.2747757
0002d0 8a c9 b5 be d1 46 3f bf be af 13 bf 56 b8 6a bf
       -0.35505325 -0.7471743 -0.57690036 -0.91687524
0002e0 d7 5a 06 3e b5 e9 3e bf 15 08 8c bf bd b3 36 bf
       0.1312059 -0.7457536 -1.0939966 -0.7136801
0002f0 d1 08 c1 3e 16 6f ae 3e 9a 5e 0c be a0 38 3f 3e
       0.3770204 0.34069127 -0.13707963 0.18673944
000300 ef 8d 78 bd ad e1 b6 3e e6 a1 44 3e 99 b3 a2 be
       -0.060682233 0.35719052 0.19202384 -0.31777647
000310 0c e8 26 be 39 4f 59 bf a5 84 a1 3f ae 68 92 3f
       -0.16299456 -0.8488651 1.2618605 1.1438196
000320 ca 68 87 3f 64 5f 50 3e e6 7f 3b 3f 02 1b 11 3d
       1.0578854 0.20348889 0.7324203 0.035426147
000330 98 79 23 3f f9 14 00 3e 61 36 40 3d d7 cf 4d 3e
       0.6385741 0.12508 0.04692686 0.20098816
000340 93 7d 48 3d de 01 83 3f 01 d8 ce 3e f4 ae 7e bf
       0.048947882 1.0234945 0.40399173 -0.9948571
000350 3a 04 2d 3e cf f1 bc bf b9 53 ba bf f9 41 b6 3e
       0.16896144 -1.4761294 -1.45568 0.35597208
000360 b9 87 4d bf 17 8c ac bf 60 42 78 bf 53 d6 7f 3f
       -0.8028522 -1.3480252 -0.9697628 0.9993641
000370 64 8f 49 3f e1 cb 4f 3f db 6b 80 3f 58 67 fd be
       0.7873442 0.8117047 1.0032915 -0.49492908
000380 74 48 ee 3e e4 6d 0d 3f 28 59 85 be d3 aa 5c bf
       0.46539652 0.55245805 -0.26044583 -0.8619816
000390 30 73 00 bf a0 3b 59 bf 00 85 32 be 80 5f d4 3e
       -0.5017576 -0.84856606 -0.17433548 0.4147911
0003a0 25 ad 6f be cd e8 b1 be 31 d7 28 bf a5 a9 e1 3e
       -0.23405893 -0.34747925 -0.65953356 0.4407474
0003b0 3e 6b 6d 3e 08 29 38 bf 32 8d 52 be 22 af 98 3e
       0.23185441 -0.7193761 -0.20561674 0.29821116
0003c0 89 93 cc 3e 2b 80 f3 3d 6e 39 d2 3e e0 f1 2d bf
       0.3995631 0.118896805 0.4105944 -0.67947197
0003d0 48 28 ee bd d1 13 63 3e 0a fc d5 3d 0b 47 50 3f
       -0.11628777 0.22175528 0.10448463 0.813584
0003e0 eb 02 99 be 11 60 08 3f 0a f2 3c 3f b9 6b af bf
       -0.2988504 0.53271586 0.7380682 -1.3704749
0003f0 5e f8 34 bf 62 cb be be 35 7f 09 c0 1c c7 08 bf
       -0.7069148 -0.37264544 -2.148389 -0.53428817

fc1.0.bias f4 [128]
000000 29 18 42 bf 76 68 0f bf 5e 98 76 bf 80 ac 98 bf
       -0.75818115 -0.5601877 -0.96326244 -1.1927643
000010 cc 16 fc be 9e 12 a2 bf 53 b5 05 bf 18 15 9d bf
       -0.49236143 -1.2661932 -0.52229804 -1.2272062
000020 c7 af 8d bf 92 25 94 bf 57 3e e3 bf c2 b9 dd bf
       -1.1069268 -1.1573966 -1.77534 -1.7322314
000030 bc 8e 76 bf 00 e0 96 bf 69 ad 49 bf 83 f2 b6 bd
       -0.96311545 -1.1787109 -0.7878023 -0.08932974
000040 a0 78 c0 bf 8d ee 8b bf b8 59 04 3f 76 a4 83 bf
       -1.5036812 -1.0932175 0.516994 -1.0284564
000050 c4 e2 ae be 2f 13 b0 bf fd 44 c3 be 2b b1 c1 bf
       -0.34157383 -1.3755854 -0.3813857 -1.5132192
000060 12 33 4f bf 0c 45 9d bf 02 13 c7 bf 08 c1 6b bf
       -0.809373 -1.2286696 -1.5552676 -0.9209142
000070 31 aa 3e bf 22 c0 70 bf 0f 71 66 bf 44 88 18 bf
       -0.7447844 -0.9404317 -0.90016264 -0.59582925
000080 21 c1 e3 bf 59 1a b2 bf d2 7c 79 bf b6 53 47 bf
       -1.7793313 -1.3914291 -0.97456086 -0.7786211
000090 61 25 1b c0 7c 0c a8 3e 99 a9 91 bf c0 ec c4 bf
       -2.4241564 0.32822025 -1.1379882 -1.538475
0000a0 77 b9 d6 bf 09 ad 94 bf fd 6e 1b bf 08 47 82 be
       -1.6775349 -1.1615306 -0.6071623 -0.25444818
0000b0 4b ec 97 bf e1 92 82 be 10 74 53 bf af 8e 25 bf
       -1.1868986 -0.25502685 -0.8259897 -0.6467084
0000c0 2d 91 4d bf 08 fa 95 bf bf 90 79 bf 4f aa 06 bf
       -0.80299646 -1.1716928 -0.9748649 -0.5260362
0000d0 a2 5f 7d bf 47 43 60 bf 4a 44 93 bf fb 16 84 bf
       -0.9897405 -0.8760266 -1.1505215 -1.0319513
0000e0 83 7e 13 bf 68 9a 0c bf e4 9e 6b bf 9d 05 eb bf
       -0.57614917 -0.54923105 -0.9203932 -1.8361088
0000f0 c7 58 29 bf 8c 88 d8 be dc d2 0c bf 00 d9 4e bf
       -0.6615109 -0.42291677 -0.55009246 -0.80799866
000100 12 f4 b1 bf 4b 0a d6 be 56 e8 08 c0 3e 3a a6 bf
       -1.3902609 -0.41804728 -2.1391807 -1.2986524
000110 b5 10 64 bf 1e 19 18 be 2a 7f 65 bf e1 76 bf bf
       -0.8908799 -0.14853331 -0.8964716 -1.4958154
000120 4f f9 52 bf da b6 63 bf 52 54 87 bf 40 df 55 bf
       -0.82411665 -0.88950884 -1.0572608 -0.8354378
000130 f1 39 87 bf f4 64 3f bf 3b 58 44 bd a4 42 91 be
       -1.0564557 -0.7476342 -0.047935706 -0.28371155
000140 d5 2f 7f bf 39 e4 7c bf b7 d5 5b bf 36 2b 7f bf
       -0.9968236 -0.9878574 -0.8587298 -0.9967531
000150 d1 1d 56 bf ce 9a 8c bf 2d 17 b9 bf f5 15 0d bf
       -0.83639246 -1.0984743 -1.4460198 -0.5511163
000160 e3 5a 18 bf b3 f4 ff bf 66 9e af be 64 9d 03 bf
       -0.5951368 -1.9996551 -0.34300536 -0.51412034
000170 80 39 77 bf ad 1c 96 bf ab b2 c1 bf fb 9b e4 be
       -0.96572113 -1.1727501 -1.513265 -0.44650254
000180 b0 7b 5c bf 48 ac 75 bf c8 34 6c bf 67 fc 23 bf
       -0.8612623 -0.95966005 -0.9226804 -0.6405701
000190 bd 04 66 bf f0 3b 98 bf d2 ad 83 bf 7d 7b 82 bf
       -0.8985098 -1.1893291 -1.0287421 -1.0193936
0001a0 e5 5a 87 bf 66 d6 89 bf 6f be c3 bf 1e de 20 bf
       -1.0574614 -1.0768554 -1.5292491 -0.62838924
0001b0 66 70 cb bf 46 ac 6f be 68 34 b5 bf 52 39 3f bf
       -1.5893676 -0.23405561 -1.4156618 -0.7469684
0001c0 0c f8 c0 be b9 f5 ab be 80 9f 50 bf 46 ab a1 bf
       -0.37689245 -0.3358591 -0.8149338 -1.2630394
0001d0 b5 a5 83 bf 4b f5 98 bf b0 18 14 be ed d7 bb be
       -1.0284945 -1.1949857 -0.14462543 -0.36688176
0001e0 95 f3 6b bf eb 69 c8 bf 49 ad 5d bf ac 35 e0 be
       -0.9216855 -1.5657324 -0.8659254 -0.43790948
0001f0 8b 3b a4 bf c4 41 5f bf 10 0f 2c bf 62 3d cc bf
       -1.2830671 -0.87209725 -0.67210484 -1.5956233

fc2.0.weight f4 [256, 128]
000000 3a de 5e 3f 2a 3a ef bf 96 4e a7 3f 36 22 9d 3f
       0.8705784 -1.8689625 1.3070858 1.2276065
000010 12 0d d8 3e 32 42 0a 3f dd dc 28 bf 9f 3c 93 3e
       0.42197472 0.54007256 -0.6596201 0.28757188
000020 6a fc 96 bf 7b ff 88 3f 19 2e cd 3f 5e 91 84 bf
       -1.1795781 1.0702966 1.6029693 -1.0356863
000030 b9 cd 9d bf 23 48 21 3e 02 f5 ef 3e 8f 3f d4 bf
       -1.2328407 0.15750174 0.46866614 -1.6581897
000040 3e 99 cf 3f d9 f7 7f 3f a6 06 14 bf a9 de 09 3f
       1.6218641 0.9998756 -0.57822645 0.5385538
000050 83 b2 ed bd bc 0b ce be 09 4d c9 bd 1d 76 ea 3e
       -0.11606314 -0.40243328 -0.098291464 0.45793238
000060 31 24 8e be 9b e9 db 3f d7 24 1b bf be cd 86 3f
       -0.27761987 1.7180666 -0.6060309 1.0531538
000070 29 c7 f1 bd f6 41 88 bf f9 08 a5 3f 93 03 54 bf
       -0.11805565 -1.064513 1.2893363 -0.82817954
000080 ee 76 7b 3f 9a 0f de 3f d2 bf 0b be 1a 6a 57 3f
       0.9822835 1.7348511 -0.13647392 0.84146273
000090 7c 35 a4 3f 99 fb 42 3e 34 95 19 3f d2 0e 73 3f
       1.2828822 0.1904129 0.5999329 0.9494449
0000a0 a4 4e c8 3e 98 b4 81 3f 33 1d 5a bf d9 ea 2e bd
       0.39122498 1.0133238 -0.85200804 -0.042704437
0000b0 a3 be 05 3f ce b3 50 be fd 58 4a bf 37 32 96 3e
       0.52244014 -0.2038109 -0.79042035 0.29335186
0000c0 f6 0d 04 3f 64 9b 6c 3f a2 90 b0 3c 43 ee a7 3f
       0.515838 0.9242461 0.021553341 1.3119587
0000d0 24 68 ed 3f c5 36 c4 3f 72 6e 69 3f 84 14 10 3f
       1.8547406 1.5329214 0.9118415 0.56281304
0000e0 77 59 31 be 59 9c 2c 3f a8 7c 54 3e c9 09 01 bf
       -0.17319284 0.6742607 0.20750678 -0.50405556
0000f0 fb 6c 6d 3f cd 9c 3b 3f fc 89 e0 3e 5c 76 80 3f
       0.92744416 0.73286134 0.43855274 1.003612
000100 13 9c 95 3e 03 17 04 40 33 8d a0 3f 25 98 b5 3d
       0.29220638 2.0639045 1.254309 0.0886691
000110 5a 57 dc 3e 2b 38 1b c0 6c b5 f8 be 1d 1e 9f 3f
       0.43035394 -2.4253032 -0.48575914 1.2431065
000120 7a 65 9a be 46 95 fd 3f 77 a3 58 bf 2f 08 af 3e
       -0.30155545 1.981118 -0.8462443 0.3418593
000130 a4 84 10 3f e2 3d 23 bf de 1d 99 3f 7a 88 a3 3e
       0.56452394 -0.637663 1.196224 0.3194006
000140 28 0c 5e be fe be 03 be c5 4b 5c 3f 79 a4 3d bd
       -0.21684325 -0.12865826 0.86053115 -0.04629943
000150 d4 11 b7 3f 72 ee b4 3f 74 90 ee 3d 99 b7 a3 be
       1.4302316 1.4135268 0.11648646 -0.3197601
000160 17 03 73 3f 67 77 6a 3f 67 bf 58 bf 0e 2b 86 3f
       0.9492659 0.91588444 -0.84667057 1.0481889
000170 2e 55 13 3f 5c ea 63 be 48 90 13 3f b7 af 1d 3e
       0.5755185 -0.2225737 0.5764203 0.15399061
000180 f9 f8 94 3f c5 01 7d 3f 92 ac 22 3e e1 fa 29 3f
       1.163848 0.98830825 0.15886143 0.66398436
000190 03 a2 86 3e cd fe 5c 3f 24 ce f2 3e c3 52 b8 3f
       0.2629548 0.86326295 0.47422898 1.4400257
0001a0 d6 d4 62 bd df cd 8c 3f 8c 9e 08 40 34 a5 b0 3f
       -0.055378757 1.1000327 2.134677 1.3800416
0001b0 00 f1 6e 3f 45 20 34 be 05 ba 4b be b2 94 8f bf
       0.93336487 -0.17590435 -0.1989518 -1.1217253
0001c0 0b 31 98 3f b1 ab a9 3e ca a8 1a 3d c7 ca 0d 3f
       1.1889967 0.33138803 0.037758626 0.5538754
0001d0 14 03 0a be 12 fc 7e 3e 46 c4 85 3f 12 84 e3 bf
       -0.13477737 0.24900845 1.0450523 -1.777468
0001e0 d0 38 97 3f fb 14 37 3f 8a 72 e3 3d dd be 07 3e
       1.1814213 0.7151639 0.11105831 0.13256402
0001f0 86 73 71 3f 8a 5a 33 bf 42 c5 80 bf 27 f7 0b bd
       0.943169 -0.70060027 -1.0060198 -0.03417125
000200 70 29 28 3f ee 68 ad bf e9 ae dd 3e 0a f0 4b be
       0.6568823 -1.3547647 0.43297508 -0.19915786
000210 16 4a b6 3f 7f cd 10 40 fd 38 2c 3f a7 dc 81 3f
       1.4241359 2.2625425 0.6727446 1.0145463
000220 f5 f9 ff 3e 30 98 b6 3f 1b 13 b4 3e 14 6c 6f 3f
       0.4999539 1.4265194 0.35170826 0.9352429
000230 cc 69 a5 3d de 37 e8 3e 7a 85 5f 3e 3f ec b9 bf
       0.0807682 0.45355123 0.21828261 -1.4525222
000240 57 33 4f 3f c1 8b a0 3d af 53 2d bf 22 b6 74 3e
       0.80937713 0.07839156 -0.67705816 0.23897603
000250 0f 79 05 3f a0 5a 9a 3f a4 10 0f bd f5 82 f9 3f
       0.52137846 1.2058907 -0.03492798 1.949309
000260 37 6f d5 3f af d7 e8 3f 43 0a 82 3f 37 ff 3c 3d
       1.6674565 1.8190821 1.0159382 0.04614183
000270 7c 98 a8 3f 95 48 05 bf 3c 4a 49 3f 73 d8 29 40
       1.3171535 -0.52063876 0.786289 2.653836
000280 32 d3 ff 3f 56 df f7 3e 82 97 0c 3f 54 7c ee 3f
       1.9986327 0.4841258 0.5491868 1.8631692
000290 95 1e c3 3f 1c 62 b3 3e 8d 7c 31 b9 c3 50 65 3e
       1.5243708 0.3503579 -0.00016926434 0.2239409
0002a0 68 d9 94 3f 5b 8f 73 3e d2 3e 98 be a7 38 4c bf
       1.1628847 0.23785155 -0.29735428 -0.79773945
0002b0 03 0c 11 3f 9c 4f 94 3f 37 73 5b 3f bc f7 2d be
       0.56658953 1.1586795 0.8572268 -0.16989034
0002c0 93 25 41 be f8 7d cf 3f fc f9 03 3c da e1 8b 3f
       -0.1886199 1.6210318 0.008055206 1.09283
0002d0 94 57 03 3f e9 ff c1 3e 86 b4 06 3f ca 7e 70 bd
       0.5130551 0.37890556 0.52619207 -0.058714665
0002e0 f4 0b 9a 3f 20 cd 81 3f 63 76 10 3e ae 59 1c 3f
       1.2034898 1.0140724 0.14107661 0.6107434
0002f0 35 9d 34 3d 64 7a ba 3f b7 33 1b 3e 27 b4 7e 3f
       0.044095237 1.4568601 0.15156446 0.9949364
000300 9b 29 f9 3e 7c 5e b5 3d 54 d1 04 40 6c ee 3a 3f
       0.48664555 0.08855912 2.0752764 0.7302005
000310 a8 59 7f bf 1a d9 b9 bd 04 74 21 3f 25 43 f0 3f
       -0.9974618 -0.09074612 0.6306765 1.8770491
000320 a4 07 f1 3e 44 26 ae 3f 3d 1c 9d 3f ec 61 18 3f
       0.47076142 1.3605428 1.2274243 0.59524417
000330 6c 56 ba 3f 59 c3 8a 3e 1a cf b3 bd e8 7b 56 3e
       1.4557624 0.27102163 -0.08779736 0.20945704
000340 4b 41 fe be b7 b4 ff bf d5 4b 0f be 7d 30 fe 3e
       -0.4965919 -1.9977025 -0.13993771 0.4964637
000350 ff 0d 74 bf 43 17 49 3f 5d 3b 60 3f 88 78 83 3f
       -0.95333856 0.7855112 0.8759058 1.0271158
000360 58 c7 ee 3e 91 8a 47 3f 5d 9a 20 3f ce 92 0a 3e
       0.46636462 0.7794581 0.6273554 0.13532564
000370 98 e9 a8 be 4b 11 dc bd 2e 1e bd 3f ca 1e 95 3e
       -0.32990718 -0.10745486 1.4774835 0.29125053
000380 db 06 80 3f 87 f5 89 3f 37 ff a9 bf 91 4a 97 3f
       1.0002092 1.0778054 -1.328101 1.1819631
000390 b9 11 2f 3f 64 a0 3d bf 76 3e 13 bf 98 11 1f 3e
       0.6838642 -0.7407286 -0.5751718 0.15534055
0003a0 ab 5f 24 bf 7c 13 fa be 37 2b f7 3e 94 be d4 3c
       -0.6420848 -0.4884299 0.48275158 0.025969781
0003b0 fa da 86 3f ff a5 83 3f f1 06 2b 3f 36 f6 04 3f
       1.0535576 1.0285033 0.66807467 0.5193819
0003c0 9f fb 35 bf 54 dd 77 3e 8e 48 49 be 0b d1 41 3f
       -0.7108707 0.24205524 -0.19656584 0.757096
0003d0 65 df d4 bd df 0a 07 40 d5 e0 b6 3f 82 5d 6c 3f
       -0.103941716 2.1100385 1.4287363 0.9233018
0003e0 41 d9 1f 3f f4 a2 9e 3f da e0 44 3f c1 a2 1c 3e
       0.6244088 1.2393479 0.76905596 0.1529646
0003f0 c8 5f 10 3f 45 50 15 be ad b6 2b 3f 67 c7 0b 40
       0.5639615 -0.14581402 0.67075616 2.1840456

fc2.0.bias f4 [256]
000000 e1 07 bc bf 64 3e 9b bf bd 97 48 bf 1e 75 81 bf
       -1.4689904 -1.2128415 -0.78356534 -1.0113866
000010 19 b9 c4 bf 52 9c 85 bf 56 70 86 bf 69 d7 9a bf
       -1.5368987 -1.043833 -1.0503032 -1.2096988
000020 52 b0 d2 bf 1e ed 9a bf 5c 28 73 bf f4 8d c2 bf
       -1.6460059 -1.2103612 -0.9498346 -1.5199571
000030 45 21 9f bf 73 e0 78 bf 69 b4 bd bf 2e 32 78 bf
       -1.2432028 -0.9721748 -1.4820682 -0.9695157
000040 3e da d9 bf bb ee a7 bf e4 1e 4b bf e2 00 33 bf
       -1.7019727 -1.311973 -0.7934401 -0.6992322
000050 c1 4a 85 bf 9c af 3e bf c9 c9 e9 bf 09 be ec bf
       -1.0413438 -0.7448671 -1.8264705 -1.8495494
000060 6e d0 91 bf 43 77 4d 3e 9d 6c c4 bf fe ac 15 bf
       -1.1391733 0.20065026 -1.5345646 -0.5846709
000070 8d aa 86 bf 2e 02 13 3e 69 53 64 be 64 61 ba bf
       -1.0520798 0.143563 -0.22297443 -1.4560971
000080 79 bd 85 bf cd a9 4b bc 7f d4 d5 bf 46 d0 d1 bf
       -1.0448447 -0.01243062 -1.6705474 -1.6391685
000090 07 c5 ab bf a0 fc ab bf 61 b9 8c bf d6 8f 84 bf
       -1.3419503 -1.343647 -1.0994073 -1.0356395
0000a0 48 1b 37 bf 45 70 b5 bf 9b ba a4 bf 24 be 43 bf
       -0.71526 -1.4174887 -1.2869447 -0.76462007
0000b0 d4 fd b4 bf 0d e8 9c bf 7c 3b d4 3e 3f 0b 9f bf
       -1.4139962 -1.2258316 0.41451633 -1.2425307
0000c0 6e 5d aa bf 01 4f ec bf 22 3d 9a bf 6b 9d 56 bf
       -1.3309762 -1.846161 -1.2049906 -0.8383395
0000d0 8d c1 62 bf 9a fa ba be 2c 56 6c bf b2 7c bb bf
       -0.88576585 -0.3651932 -0.9231899 -1.4647429
0000e0 e0 94 bb bf 4a f8 e1 be 07 3e 52 bf af 38 aa bf
       -1.4654808 -0.44134742 -0.82125896 -1.3298548
0000f0 f1 c1 02 c0 62 df df bf 50 35 59 bf a0 79 fd bf
       -2.0430872 -1.7490046 -0.84846973 -1.9802742
000100 62 79 34 bf ac ed 0d bf 68 db e7 bf 60 17 72 bf
       -0.70497715 -0.55440784 -1.8113832 -0.9456692
000110 a4 4b 1e bf 69 ef ba bf 85 ef a3 bf ef 7b 9b bd
       -0.6183417 -1.4604312 -1.280747 -0.07591998
000120 51 10 fa bf 6e 00 2c be eb ab ae bf d7 ba d9 be
       -1.9536229 -0.16797039 -1.3646215 -0.4252536
000130 4b b2 76 bf ad ae 86 bf 7a 7d bf bf a4 a4 79 bf
       -0.96365803 -1.0522057 -1.4960167 -0.97516847
000140 96 50 b4 bf 7f 98 94 bf cc 02 8d 3e 6c 3c df bf
       -1.4087093 -1.1609038 0.27541196 -1.7440314
000150 8b ed c2 bf 24 05 02 c0 cd 22 c1 3e 65 e1 08 bf
       -1.5228742 -2.0315638 0.37721863 -0.53468925
000160 f1 a6 7c bf a8 43 f4 bf bb 04 c6 bf a1 1b fe bf
       -0.9869223 -1.9083147 -1.5470194 -1.9852182
000170 d1 f4 ea be 76 e7 b7 be fa ca 8e bf 35 f1 f2 3e
       -0.45889905 -0.35918778 -1.1155694 0.4744965
000180 34 f4 eb bf c2 76 ea bf a1 97 8a bf 8d f5 b3 bf
       -1.84339 -1.8317492 -1.0827523 -1.4059311
000190 40 e7 6a bf e0 95 81 be 68 05 7a bf c6 fa a1 bf
       -0.9175911 -0.25309658 -0.976645 -1.2654655
0001a0 c8 76 da bf 1a 87 ca bf 8c fe 35 be 9e e2 aa bf
       -1.7067499 -1.582248 -0.17772883 -1.3350408
0001b0 60 09 ab bf d9 a1 d1 be 67 0d de be d8 83 d2 bf
       -1.3362236 -0.40943792 -0.433696 -1.6446486
0001c0 53 6d e0 bf 23 9d 5b bf 84 80 87 bf 9f 82 d6 bf
       -1.7533363 -0.85786647 -1.0586095 -1.6758612
0001d0 07 c7 03 bf b4 7b 6c bf 48 b5 5f bf 7c 30 e2 3e
       -0.51475567 -0.92376256 -0.8738599 0.44177616
0001e0 f1 5d af bf 0c 7a 8d bf 98 57 a5 bf 2f b3 99 bf
       -1.3700544 -1.1052871 -1.2917356 -1.2007807
0001f0 1d 3a 80 bf 7d 2a 5d bf a2 4d 73 bf f9 1f da bf
       -1.0017735 -0.86392957 -0.95040333 -1.7041007
000200 3c 4b a9 bf 3f d9 89 bf 24 b8 e8 bf a3 62 32 be
       -1.3226085 -1.0769423 -1.8181195 -0.1742044
000210 55 63 4b bf 55 32 a0 bd b4 e1 aa bf 95 2c fd bf
       -0.79448444 -0.078221 -1.3350129 -1.977923
000220 6d 58 d7 bf 80 dd 8a be 11 83 29 bf 32 f3 93 bf
       -1.682386 -0.27122116 -0.66215616 -1.1558592
000230 9e 91 f8 bf 19 dc 02 bf 15 50 6d bf 27 8f 83 bf
       -1.9419439 -0.5111709 -0.9270032 -1.0278062
000240 61 47 12 3f 45 40 f0 bf db 84 d3 bf 46 30 f9 bf
       0.57140166 -1.8769614 -1.6524919 -1.9467857
000250 77 80 cf bf 48 98 c1 bf 9f 83 5d bf 96 e9 96 bf
       -1.6211079 -1.5124598 -0.8652896 -1.1790035
000260 37 8c 66 bf bc be f7 bf da 33 a3 bf 61 f8 97 bf
       -0.900577 -1.9355083 -1.2750199 -1.1872674
000270 f7 41 b9 bf 2e 61 9f bf 32 58 0b bf 78 bb 0d bf
       -1.4473256 -1.2451532 -0.5443145 -0.5536418
000280 cc fc d7 bf da 3f b2 bf f1 ce 7d bf a0 c5 a8 bf
       -1.6874022 -1.3925736 -0.9914389 -1.318531
000290 90 c0 c6 bf b7 6d 76 bf 77 20 ce bf 62 7d ca bf
       -1.5527515 -0.9626116 -1.6103657 -1.5819514
0002a0 af 15 a6 bf ea ec c9 bd 45 bb a3 bf 48 e1 45 bf
       -1.2975367 -0.09859641 -1.2791525 -0.77296877
0002b0 40 dd a0 bf 1d 5a ee bf 65 4d a3 bf 8e e2 ca be
       -1.256752 -1.862125 -1.2757994 -0.39625973
0002c0 a8 08 9e bf 60 04 63 bf 30 f7 a4 bf 80 80 47 bf
       -1.2346392 -0.8867855 -1.2887936 -0.7793045
0002d0 48 f7 39 bf 26 80 a0 bf d2 3f d8 bf ad f8 ae bf
       -0.72642946 -1.2539108 -1.6894476 -1.366964
0002e0 ba 4b 6a bf 13 6c 17 bf a0 bd 0f bd 1c 5b 00 c0
       -0.915218 -0.59149283 -0.03509295 -2.0055609
0002f0 5e fd c0 bf bf ca 63 bf 76 ce a6 bf 5c c7 ab bf
       -1.5077322 -0.8898124 -1.3031757 -1.3420215
000300 fc 0c 7a bf d4 54 f8 bf 5d 3e c2 bf 31 2d d8 bf
       -0.9767606 -1.9400887 -1.5175282 -1.6888791
000310 b1 12 f8 bf b3 26 00 bf 10 de 6a bf af 7b 70 bf
       -1.9380704 -0.5005905 -0.9174509 -0.93938726
000320 27 ea 9b bf ee ee 9a bf 3b a3 71 be 8a bb 9d be
       -1.2180833 -1.2104166 -0.23597424 -0.30807143
000330 8f 52 14 c0 66 46 d4 bf 65 a6 99 3e b3 43 d5 be
       -2.317539 -1.6583984 0.3000976 -0.41653213
000340 aa 18 d4 be 5b 6b a1 bf 1e 1a 14 be 86 3c 6e bf
       -0.41425067 -1.2610887 -0.14463088 -0.930611
000350 f3 95 77 3e c2 89 c5 bf aa 85 97 bf 16 5e b7 bf
       0.24178295 -1.5432665 -1.1837666 -1.4325588
000360 6f 6b d6 bf 6a 0e 09 bf 3d 13 77 3d 2d 2a fd be
       -1.6751536 -0.5353762 0.06032108 -0.4944624
000370 f4 48 55 bf e2 fa f0 bf c5 ba 9a bf 67 80 9e bf
       -0.8331444 -1.8826563 -1.2088248 -1.2382935
000380 ef 07 e9 bf f6 93 d4 bf 43 69 03 3f 10 ee ad 3b
       -1.8205546 -1.6607654 0.5133249 0.0053079203
000390 79 64 bc bf 86 9a bf bf 2d c7 0a bf 22 20 53 be
       -1.4718162 -1.4969032 -0.5421017 -0.20617726
0003a0 f7 24 dd bf f1 ec 80 bf be 20 9a bf a7 86 5e 3e
       -1.7276906 -1.0072309 -1.2041242 0.21731053
0003b0 81 50 cf bf 87 3f 88 bf 27 a3 e6 bf bb cb ff bf
       -1.6196443 -1.0644387 -1.801854 -1.9984049
0003c0 1c e1 83 bf ae 78 b4 bf 70 f7 1c bf 37 ae 60 bf
       -1.0303073 -1.4099329 -0.6131506 -0.8776583
0003d0 b3 56 5e bf d5 11 3e 3f ca bc be bf 9d 0f 0a 3e
       -0.8685104 0.7424596 -1.4901364 0.13482518
0003e0 e0 0e 19 bd 6f 0b c4 bf 4e f0 c4 bf 75 1e 8e bf
       -0.0373677 -1.5315989 -1.5385835 -1.1103045
0003f0 59 61 96 bf c8 34 8c bf 68 0a b2 bf e9 92 1e bf
       -1.1748458 -1.0953608 -1.3909426 -0.6194292

fc3.0.weight f4 [3, 256]
000000 f6 98 a7 3e c6 e2 3b bd 1e 93 6a be 70 e9 a0 be
       0.32733887 -0.045870565 -0.22907683 -0.314281
000010 ed df 94 be 57 ab 3a be a7 8f 00 3d da d3 48 3e
       -0.29077092 -0.18229423 0.031386998 0.19612065
000020 db dd 99 3e f9 67 0b bf 74 82 38 3f ac 5d 9c 3d
       0.30052075 -0.54455525 0.72074056 0.07635054
000030 ef a4 bf bc 89 9b b4 be 0f 7a aa 3e 5c 23 89 ba
       -0.023394076 -0.35274914 0.33296248 -0.0010462808
000040 0d 12 50 3e d7 d0 35 be 87 eb 82 bc dc ad 19 3d
       0.20319386 -0.17755447 -0.015981449 0.03751932
000050 eb b7 b0 3d 21 a6 99 bc 4d 00 15 3e 98 bc 30 bd
       0.086288296 -0.018755974 0.14550896 -0.043148607
000060 03 85 8b be 03 aa 92 bf ad 84 5f bf fc a3 a6 bd
       -0.27249917 -1.1458133 -0.8731182 -0.08136746
000070 60 85 e7 3e 47 94 e1 be 9f 82 2d bd 31 f9 29 bf
       0.45218945 -0.4405844 -0.042360898 -0.6639586
000080 e3 04 88 be db cc 06 3e db 3a 99 be e0 a8 8c 3c
       -0.26566228 0.13164084 -0.29927716 0.01717037
000090 d4 b6 ca 3d b9 ca 96 be f6 c8 83 be 3c f7 c9 3e
       0.09898153 -0.2945154 -0.2573926 0.39446437
0000a0 ea ca 87 3e 86 96 c4 be da 68 05 3e 1b 18 eb 3d
       0.26522 -0.3839609 0.13028279 0.11479207
0000b0 5f 52 ad be 49 8d 04 3e ac cb 05 3e 82 1d 05 bf
       -0.33851907 0.12944521 0.13065976 -0.5199815
0000c0 24 70 83 be cf 21 32 3d f5 5a 63 3e 5b 4d 2a bf
       -0.25671494 0.043489274 0.22202666 -0.66524285
0000d0 0d 78 b9 3e c0 de 04 bf 90 8a 83 be 59 27 64 bf
       0.36224404 -0.5190239 -0.25691652 -0.8912254
0000e0 fc 94 87 bb e2 6a cd be 72 b6 ca bd ed 5f ff 3d
       -0.0041376334 -0.40120608 -0.0989808 0.12469468
0000f0 d5 07 aa be 2b 4d 8a 3c 9c e9 9a 3c 38 66 db bd
       -0.332091 0.0168825 0.018910222 -0.10712856
000100 a6 a4 cc bd 69 a5 4b be 6c 23 8a 3e 7c d1 4f 3e
       -0.09992342 -0.19887318 0.2698015 0.20294756
000110 0f 26 83 3c 63 62 0b bf e1 5a bc 3c 4d f6 4d be
       0.016009359 -0.54447 0.022992553 -0.20113488
000120 83 af a2 be 3d aa 97 3d c5 39 82 be f7 b2 4b be
       -0.3177453 0.07405517 -0.254347 -0.19892488
000130 5b 24 5e be cb b7 04 3e cf 0d a7 3d 38 49 28 be
       -0.21693556 0.12960736 0.08156931 -0.1643418
000140 06 a8 41 be 53 cb a2 3e 40 b4 f3 be d8 b9 f3 3d
       -0.18911752 0.3179575 -0.47598457 0.11900681
000150 b9 94 08 bd da 21 a3 bf e1 06 1a bf 35 b1 51 3e
       -0.033344958 -1.2744706 -0.60166746 0.20477755
000160 84 da 3d 3c 9d 11 85 be 69 c6 58 be 03 62 33 bf
       0.011587743 -0.2599 -0.21169437 -0.7007143
000170 a1 4d b6 bf 81 f0 34 3e bf 50 25 3e d2 08 77 3e
       -1.424244 0.1766987 0.16144083 0.24124458
000180 d7 dd f0 3d d9 ce 9c bd de 90 9a 3e 80 e3 26 bf
       0.117610626 -0.076566406 0.3018865 -0.6519089
000190 88 b1 c0 bd 64 2a f4 be 79 5f 48 bd 14 56 11 3c
       -0.094088614 -0.4768859 -0.048919175 0.00887062
0001a0 fc 61 8f bd 9a cb 78 3e 43 26 d9 3e 88 c0 b6 3e
       -0.07001111 0.24296418 0.42412004 0.35693765
0001b0 ae de b2 3d 2b 2e 17 bf 27 a3 a5 3a 40 59 ca be
       0.08733879 -0.5905482 0.0012637124 -0.39521217
0001c0 a3 63 75 be 73 3b a7 3e 48 fb 6a bd c1 f3 2f be
       -0.2396379 0.32662544 -0.057368547 -0.17182828
0001d0 b2 a0 fe bd 21 68 b8 bb 8e 85 79 be a0 eb f7 3e
       -0.12432994 -0.0056276475 -0.24367353 0.48421955
0001e0 04 a3 83 3e c1 a2 dc 3c 70 1b 83 bb e0 5c 92 3e
       0.2571031 0.026933076 -0.0040010735 0.28586483
0001f0 54 23 be 3d 91 ef 39 be bb 77 76 3e 04 5e 94 be
       0.09284082 -0.18157794 0.24069111 -0.28977978
000200 15 a7 98 3c 1f 55 81 be d6 37 3d be f7 58 3e c0
       0.018634358 -0.25260255 -0.18478331 -2.97418
000210 fd bb 33 bf 27 02 13 bf 87 02 7f be c8 bc ad 3c
       -0.7020872 -0.5742516 -0.24903308 0.021208182
000220 69 64 b3 be 14 84 6b bf 4d c7 15 3e 2b 3e 9e 3c
       -0.35037544 -0.9199841 0.14626808 0.019316753
000230 d7 d5 b0 be 9d 51 f1 be 80 68 64 3d 7c a5 cf 3c
       -0.34538147 -0.47132578 0.05576372 0.025347464
000240 3f 07 9a bf 66 f0 28 be b0 ef 8d be 79 69 90 3c
       -1.2033461 -0.16497955 -0.2772193 0.017628418
000250 68 3e 3c 3e 0c 4f ce 3e 64 07 15 3d 9f 11 1f 3d
       0.18383181 0.40294683 0.036384 0.038835164
000260 c1 6d a4 be 74 83 23 3e 1b 26 83 bb c6 c6 b2 bc
       -0.32114986 0.15968114 -0.0040023453 -0.021823298
000270 c7 11 94 3c 9c 79 ae ba 11 4e 50 bd bd 8b 88 3e
       0.018074883 -0.0013311389 -0.0508557 0.26669112
000280 eb 39 0e 3e c6 36 8a bf 1b 63 ba be b5 85 c2 3d
       0.13889281 -1.0797966 -0.36403736 0.09498159
000290 b6 18 5c be b3 df 2f bf 07 04 c3 3d 52 73 17 be
       -0.21493801 -0.6870071 0.095222525 -0.14790085
0002a0 08 31 68 3c 08 e8 1f bf 9b c7 92 3d 86 e1 96 3e
       0.014171846 -0.62463427 0.07166978 0.29468936
0002b0 3f 85 2c bd da 75 16 3e a2 6e 91 3d 6e 30 ce be
       -0.04211926 0.14693394 0.0710118 -0.40271324
0002c0 f9 57 e8 3e d0 3d 31 3e 76 14 52 3d 01 b1 b7 3d
       0.45379618 0.17308736 0.051289044 0.08969308
0002d0 21 31 82 bf dd bd 29 3e ad 9b cc bb 31 41 26 bf
       -1.0171243 0.16576333 -0.006244144 -0.64943224
0002e0 af 3e 95 3d 8a 52 8d be 64 17 4b 3e 39 c6 28 3e
       0.072873466 -0.27602035 0.19833142 0.16481866
0002f0 b2 e5 28 bf ec c6 cc 3b 4f dd 54 3e 60 0d a5 3e
       -0.6597549 0.0062492993 0.20787548 0.32236767
000300 ec 59 f6 3b 68 26 39 3d 7c da 51 be eb 2d 06 3e
       0.0075180437 0.045202643 -0.20493501 0.13103454
000310 81 5f 55 be 10 e0 61 be 40 cc cd 3c 94 a4 82 3d
       -0.20837213 -0.2205813 0.025121808 0.06379047
000320 e7 d6 8c bc 54 d2 80 3d c5 b8 8e be 99 72 84 be
       -0.017192317 0.06290117 -0.27875343 -0.2586868
000330 1a c3 2c 3d 96 05 9c 3e a3 88 db be 34 4f 57 3d
       0.04217825 0.30473012 -0.42877683 0.05256577
000340 55 dd 3e bd a3 01 81 3e b6 e4 56 c0 35 cd e4 bd
       -0.046597797 0.2519656 -3.3577094 -0.11171953
000350 a3 b1 3a 3c d2 0a 1f 3e 69 5e ae bd 17 fd 54 bf
       0.011394891 0.15531471 -0.08514101 -0.83198684
000360 0d 22 2a 3e b3 4d 6a bd f0 0f ba 3a 75 6f 63 be
       0.16614552 -0.057203006 0.0014195424 -0.22210486
000370 96 9d 16 c0 8a 4b 3a bd 31 db 0c 3e 5a fc 8c bf
       -2.3533683 -0.045482196 0.1375549 -1.1014512
000380 92 b7 5c 3e 09 a1 6d 3d c5 1c 5e bf 66 d9 90 be
       0.21554402 0.058014903 -0.8676265 -0.28290862
000390 82 f6 49 bd a8 1f af bd 7a 5a 28 be 0f 44 d8 bd
       -0.049307354 -0.0855096 -0.16440764 -0.10559856
0003a0 6f b1 5e 3d 91 fb b4 bd be fa 82 be 0c f8 ba be
       0.054368433 -0.08837045 -0.25581926 -0.3651737
0003b0 e8 2e 27 3e d2 19 98 be 37 9a 23 3e c6 b7 86 3c
       0.16326487 -0.297072 0.15976797 0.016445052
0003c0 8b 51 c8 bf 5c e1 0f 3e 35 5c 0b 3e ff 19 b1 be
       -1.5649885 0.14050812 0.13609393 -0.34590146
0003d0 b8 fb 52 be 61 f9 ea be ad 6d ed be b8 a6 19 bc
       -0.20603836 -0.45893386 -0.46372738 -0.009378128
0003e0 7f 23 6d bc 5a e0 75 3d 31 ad 38 3d 9a 6b 3a 3c
       -0.014473795 0.06002841 0.045087043 0.011378193
0003f0 81 c7 b2 3e c3 6a 96 3d 28 78 23 be c4 14 22 3e
       0.34917834 0.07344582 -0.15963805 0.15828234

fc3.0.bias f4 [3]
000000 6c fe 83 3f 39 36 08 3f c9 a3 33 3f
       1.0312018 0.5320774 0.7017179
